parameters_UnspiredNet_Adam_0.01_5.pth (torch, 148929 bytes, 64 tensors)

weight f4 [8, 3, 3, 3]
-0.21136686 -0.38224575 0.011811797 -0.37122035 -0.31038317 -0.08953427 -0.26219147 -0.225767
0.092120126 0.08590615 0.1552388 0.41760385 0.14712802 0.17657354 0.37867942 0.020776782
0.16118158 0.58430755 -0.12951146 0.09662163 0.09327089 -0.13019106 0.19493867 0.12334153
0.021718526 0.17702477 0.16895881 0.15209661 -0.00313132 0.06410099 0.08460054 -0.20635495
0.0815853 0.13346021 0.09163013 -0.1330452 -0.021081522 -0.009710612 0.22712594 0.1189007
0.089361064 0.058169607 0.08627223 0.13607529 -0.10728845 0.1330306 0.07209304 0.09667727
0.34910282 0.41771433 0.11481827 0.31695297 0.26458886 0.43760154 -0.22086625 -0.012603425
-0.19752142 0.020858627 0.10346459 -0.14865676 -0.123243295 0.06674541 0.02411569 0.053982966
-0.26438788 -0.014709004 -0.010620988 -0.20673719 0.058678932 -0.11711935 -0.14891118 -0.16679576
0.14534551 -0.099536695 -0.09561802 0.008639736 0.13203031 -0.032674138 -0.14008962 -0.20212384
0.09908856 -0.264995 -0.1414191 -0.14960761 -0.4531793 -0.013604359 -0.33349523 -0.2796833
-0.14283878 0.02378157 0.6214284 0.39731506 0.48541293 0.5985445 0.59126997 0.3578595
0.6010653 0.47396222 0.6335019 -0.27403358 -0.34253722 -0.3713247 -0.26496312 -0.2598231
-0.21246488 -0.26609388 -0.03471117 -0.12257862 0.019846687 -0.025707578 0.09001629 0.27508137
0.23789003 0.099628076 0.36776397 0.13895634 0.01591109 -0.17851123 0.12012408 -0.28363025
0.06713238 -0.14221044 -0.25145274 0.044040825 -0.13340515 -0.3739542 0.015992172 -0.22388422
-0.0122722015 -0.14517716 -0.27293813 -0.29388908 -0.055642415 -0.034922548 -0.29447418 -0.29603368
0.040370926 0.120680675 -0.065799154 -0.1985298 -0.0051824753 -0.20668751 -0.15004663 -7.681347e-05
-0.12101122 0.06337944 0.0926437 0.10213989 -0.10179629 0.23988944 -0.14268476 -0.022205984
0.2225775 0.18639414 0.061656576 0.1754054 0.31991562 0.18736362 0.19402337 0.048419245
0.1311962 0.3057899 0.20529799 0.22633423 -0.0008906732 -0.027500147 -0.014514904 0.14731541
0.07966226 0.2337371 0.015709689 -0.027218534 0.08645556 0.20010424 -0.020964107 -0.11963869
0.0038488763 0.03047987 0.019817906 -0.10036599 -0.1454012 0.19572915 -0.1398252 0.16854393
0.13317953 -0.0057942793 0.017126998 0.20487632 0.24017692 0.26107782 0.2904372 0.052556228
0.54441327 0.35510707 0.015177612 0.5313704 0.3353998 0.06431561 -0.30178118 -0.32169148
-0.4477817 -0.2299386 -0.2482234 -0.40031874 -0.14629912 -0.32727036 -0.57817686 0.14862883
0.40344113 0.16219981 0.27115124 0.27274007 0.15048514 0.27856755 0.12602262 -0.00019914297
00000000: 8e70 58be b7b5 c3be 4486 413c 9810 bebe
00000010: 8bea 9ebe be5d b7bd f63d 86be 772f 67be
00000020: 7aa9 bc3d 90ef af3d ecf6 1e3e 2cd0 d53e
00000030: baa8 163e b2cf 343e 45e2 c13e 1234 aa3c
00000040: c90c 253e 2e95 153f a79e 04be 90e1 c53d
00000050: cf04 bf3d ce50 05be 019e 473e 7c9a fc3d
00000060: 0deb b13c fb45 353e 8a03 2d3e 37bf 1b3e
00000070: d536 4dbb 6147 833d 0c43 ad3d b64e 53be
00000080: 3216 a73d cba9 083e 94a8 bb3d 003d 08be
00000090: 28b3 acbc 4219 1fbc b493 683e 3682 f33d
000000a0: ef02 b73d 4143 6e3d 7faf b03d 5257 0b3e
000000b0: 0cba dbbd 2c39 083e 84a5 933d bcfe c53d
000000c0: 9bbd b23e a7de d53e d725 eb3d a947 a23e
000000d0: 3178 873e 4f0d e03e c32a 62be 997e 4ebc
000000e0: 0e43 4abe b6df aa3c 3ee5 d33d 7a39 18be
000000f0: fb66 fcbd d1b1 883d 448e c53c 3e1d 5d3d
00000100: d95d 87be 09fe 70bc a703 2ebc eab2 53be
00000110: 5259 703d 45dc efbd 2c7c 18be 82cc 2abe
00000120: 74d5 143e e5d9 cbbd 61d3 c3bd ae8d 0d3c
00000130: f432 073e 51d5 05bd a773 0fbe 8df9 4ebe
00000140: f1ee ca3d 6dad 87be 2bd0 10be bd32 19be
00000150: 1e07 e8be d1e4 5ebc e3bf aabe a632 8fbe
00000160: 5444 12be 91d1 c23c ee15 1f3f e16c cb3e
00000170: 0b88 f83e 363a 193f 785d 173f 5c39 b73e
00000180: 6adf 193f 2dab f23e 2e2d 223f 214e 8cbe
00000190: 0a61 afbe 451e bebe 3fa9 87be 8907 85be
000001a0: 6590 59be 753d 88be 4d2d 0ebd 800a fbbd
000001b0: 8595 a23c b398 d2bc 765a b83d 77d7 8c3e
000001c0: 7299 733e ce09 cc3d 8f4b bc3e 924a 0e3e
000001d0: f957 823c a6cb 36be 9d03 f63d fc37 91be
000001e0: b47c 893d 9d9f 11be 6abe 80be 2764 343d
000001f0: 5c9b 08be ed76 bfbe 0402 833c e841 65be
00000200: 5811 49bc 52a9 14be 8cbe 8bbe a178 96be
00000210: 4de9 63bd f20a 0fbd 52c5 96be ba91 97be
00000220: fc5b 253d 6e27 f73d b5c1 86bd 654b 4bbe
00000230: c1d1 a9bb e4a5 53be d3a5 19be eb16 a1b8
00000240: bbd4 f7bd 14cd 813d fbbb bd3d b82e d13d
00000250: 937a d0bd 94a5 753e f41b 12be 53e9 b5bc
00000260: 5beb 633e 1bde 3e3e 9b8b 7c3d 799d 333e
00000270: fbcb a33e 40dc 3f3e 10ae 463e 4253 463d
00000280: 4c58 063e 7e90 9c3e a339 523e 29c4 673e
00000290: 117c 69ba fd47 e1bc ebcf 6dbc dad9 163e
000002a0: f825 a33d c758 6f3e 9bb1 803c 67f9 debc
000002b0: 9d0f b13d 20e8 4c3e ebbc abbc 2105 f5bd
000002c0: 6e3d 7c3b ecb0 f93c 2959 a23c af8c cdbd
000002d0: 0de4 14be 396d 483e 562e 0fbe c896 2c3e
000002e0: 3760 083e f0dd bdbb eb4d 8c3c 19cb 513e
000002f0: f0f0 753e feab 853e 2fb4 943e 3345 573d
00000300: ab5e 0b3f 98d0 b53e 85ab 783c e407 083f
00000310: 86b9 ab3e e7b7 833d 1083 9abe bfb4 a4be
00000320: a543 e5be 0675 6bbe 462e 7ebe 94f6 ccbe
00000330: 70cf 15be fb8f a7be 6603 14bf 2832 183e
00000340: d68f ce3e b517 263e 56d4 8a3e 96a4 8b3e
00000350: c718 1a3e 68a0 8e3e 130c 013e 09d1 50b9

bias f4 [8]
-0.14288586 -0.17998837 -0.09231021 0.014476081 0.18076394 1.6299044e-05 0.15267986 0.07867909
00000000: ac50 12be df4e 38be 230d bdbd 162d 6d3c
00000010: 2f1a 393e eeb9 8837 1c58 1c3e 8122 a13d

weight f4 [8]
0.8714336 0.67165875 0.72176373 1.2699293 1.0719478 0.7507583 0.28782868 1.5253094
00000000: 4616 5f3f d4f1 2b3f 82c5 383f 0b8d a23f
00000010: 9635 893f b231 403f 485e 933e 573d c33f

bias f4 [8]
0.036437888 -0.03468277 2.080842 -2.198751 -1.3800675 -0.5465472 -1.0815469 0.9795795
00000000: e53f 153d 850f 0ebd 842c 0540 56b8 0cc0
00000010: 0da6 b0bf 84ea 0bbf 2170 8abf b9c5 7a3f

running_mean f4 [8]
136.28337 390.9602 -180.50598 106.669556 -175.05959 157.16588 196.50777 152.10359
00000000: 8b48 0843 e87a c343 8881 34c3 d056 d542
00000010: 410f 2fc3 772a 1d43 fd81 4443 851a 1843

running_var f4 [8]
7561.0747 40733.816 7686.8037 3986.0544 11011.894 9410.262 9309.563 7044.4834
00000000: 9948 ec45 d11d 1f47 6e36 f045 df20 7945
00000010: 930f 2c46 0c09 1346 4176 1146 de23 dc45

weight f4 [8, 8, 3, 3]
0.024439849 0.11939754 0.28487724 0.15516736 0.32128614 0.2732456 0.08986068 0.25927308
0.18649808 0.111523256 0.009209399 0.20983067 -0.00842401 0.14882454 0.20420027 -0.046041574
0.08610852 0.11042963 0.20001745 0.03978937 0.15347293 0.10869335 0.015712785 0.10503544
0.09545808 0.15476105 -0.010158708 -0.23299411 -0.26807106 -0.18333253 -0.21932076 -0.181235
-0.12893099 -0.3398289 -0.28750175 -0.15869744 -0.16098103 -0.3073664 -0.21971072 -0.1905535
-0.21591362 -0.2704983 -0.2579219 -0.37188116 -0.38225138 0.115708 0.039745715 0.06983842
0.16650432 0.05955176 0.22655152 0.15672638 0.2148811 0.060523678 -0.10963659 -0.018416924
-0.026312273 -0.122577734 -0.080764994 -0.053946406 -0.0222263 0.01600243 -0.13461621 -0.13125741
-0.19406965 -0.14436881 -0.27064747 -0.23863652 -0.18798138 -0.184407 -0.16242482 0.02091622
0.0052517913 0.07904945 0.073552564 0.12108887 0.2701533 0.12827826 0.18590249 0.27804878
0.10047556 -0.028132169 0.025353434 0.027422065 -0.004824536 -0.00808562 0.11677359 0.030741995
0.08149709 -0.002590592 0.03237626 0.068624586 -0.09298125 0.032711044 0.07086696 -0.12623946
0.08515338 -0.14004572 -0.19418757 0.13971043 0.3690142 0.30885965 0.13696763 0.49790034
0.44282702 0.22499628 0.3372292 0.48676917 -0.18462515 -0.06518782 -0.18548454 -0.10999944
-0.19159442 -0.22079177 -0.1457217 -0.090764895 -0.07918689 0.05652978 0.1162125 0.13975717
0.054114185 0.19359986 0.17878178 0.031601924 0.20131244 0.058785994 -0.03960834 -0.021636337
0.18162684 -0.11065673 0.043969654 -0.028346963 -0.12296153 -0.017925182 0.06379837 -0.3843441
-0.44552281 -0.18663862 -0.46897313 -0.6172217 -0.30750135 -0.40026718 -0.5918239 -0.1595355
0.069195904 -0.027612062 0.047716085 -0.06101586 0.051399965 -0.005854641 0.03485905 -0.1565413
0.018903691 0.114903815 0.20787726 0.023171179 0.24669348 0.20361026 0.008003428 0.1251024
0.037449036 -0.0051303767 0.13165154 0.11118313 -0.014171457 0.051878057 -0.0322344 0.018658662
0.20524655 0.08950902 0.1640912 -0.186747 -0.19858673 -0.18945059 -0.21827675 -0.38041002
-0.35072848 -0.23186363 -0.22568446 -0.33210164 0.05586699 0.041828584 -0.12323495 0.10703138
0.10429241 -0.12653348 -0.055892434 0.053628594 -0.17289524 0.054482963 0.24618101 0.18882798
0.08728902 0.2221772 0.15541819 0.042005744 0.09695429 0.076787494 -0.14556025 0.045269903
-0.0064723156 -0.0155350445 -0.119908206 0.031170275 -0.16627885 -0.056323983 0.049109094 0.047062613
0.08461011 0.0039267726 -0.01643482 0.26039433 0.030085307 0.08084637 0.22482957 0.08935218
-0.242685 -0.06058864 -0.045192923 -0.1409695 -0.114452705 0.012927373 -0.22955269 -0.24112251
0.03213783 0.12743224 0.13684347 -0.07524524 0.15113397 0.051850684 -0.040999398 0.14271374
-0.022828992 0.11006339 0.020638017 0.09163937 0.20510383 0.13833594 0.23004368 0.20518568
0.10896935 0.20269792 0.1542531 -0.15048462 -0.38040638 -0.434489 -0.19120598 -0.3202164
-0.21006545 -0.21497208 -0.2984679 -0.19718207 0.15766056 0.14785697 -0.07349265 0.14509629
00000000: 1436 c83c b386 f43d 6edb 913e 31e4 1e3e
00000010: 9e7f a43e d9e6 8b3e e008 b83d 71bf 843e
00000020: 5af9 3e3e 4e66 e43d 05e3 163c dadd 563e
00000030: dc04 0abc 7665 183e e019 513e 1796 3cbd
00000040: aa59 b03d ee28 e23d 60d1 4c3e 2efa 223d
00000050: 0228 1d3e 9e9a de3d 19b8 803c d21c d73d
00000060: 877f c33d ae79 1e3e b670 26bc 0296 6ebe
00000070: 9c40 89be 86bb 3bbe 9f95 60be ab95 39be
00000080: 7c06 04be 0efe adbe 6e33 93be 9581 22be
00000090: 36d8 24be 215f 9dbe d9fb 60be 7520 43be
000000a0: 7618 5dbe c17e 8abe 570e 84be 3567 bebe
000000b0: 74b6 c3be 51f8 ec3d 67cc 223d 7207 8f3d
000000c0: 1c80 2a3e 8cec 733d 1ffd 673e e17c 203e
000000d0: cb09 5c3e ade7 773d 2689 e0bd 17df 96bc
000000e0: d68c d7bc 090a fbbd 1e68 a5bd e8f6 5cbd
000000f0: ee13 b6bc 8717 833c d5d8 09be 5868 06be
00000100: 32ba 46be 6bd5 13be 4e92 8abe 225d 74be
00000110: 317e 40be 30d5 3cbe b152 26be 7e58 ab3c
00000120: 3817 ac3b aee4 a13d baa2 963d 71fd f73d
00000130: 8951 8a3e 605b 033e 395d 3e3e 695c 8e3e
00000140: 21c6 cd3d 6f75 e6bc 01b2 cf3c 3da4 e03c
00000150: 2417 9ebb 8c79 04bc fe26 ef3d a3d6 fb3c
00000160: f2e7 a63d ecc6 29bb f89c 043d 0c8b 8c3d
00000170: f46c bebd 04fc 053d b222 913d eb44 01be
00000180: e564 ae3d 2568 0fbe 1bd9 46be 4010 0f3e
00000190: 6eef bc3e da22 9e3e 3e41 0c3e cbec fe3e
000001a0: 39ba e23e 6d65 663e 4ea9 ac3e cf39 f93e
000001b0: 600e 3dbe 3181 85bd a9ef 3dbe 6347 e1bd
000001c0: 5431 44be 3d17 62be 1238 15be f2e2 b9bd
000001d0: bc2c a2bd c58b 673d d200 ee3d 811c 0f3e
000001e0: d6a6 5d3d 0b3f 463e 9212 373e 0571 013d
000001f0: d924 4e3e 95c9 703d 5b3c 22bd b03e b1bc
00000200: 63fc 393e ff9f e2bd 8619 343d e437 e8bc
00000210: 41d3 fbbd d5d7 92bc b8a8 823d c0c8 c4be
00000220: 911b e4be 321e 3fbe 3f1d f0be 3e02 1ebf
00000230: d170 9dbe d2ef ccbe c581 17bf 465d 23be
00000240: 95b6 8d3d b132 e2bc f171 433d c4eb 79bd
00000250: c588 523d 4ad8 bfbb 5dc8 0e3d 5d4c 20be
00000260: eadb 9a3c b152 eb3d c7dd 543e 7cd1 bd3c
00000270: 379d 7c3e 357f 503e cf20 033c d81a 003e
00000280: 2964 193d b81c a8bb a9cf 063e fbb3 e33d
00000290: 662f 68bc 167e 543d 3808 04bd 0dda 983c
000002a0: 272c 523e 8150 b73d 8607 283e 9b3a 3fbe
000002b0: 525a 4bbe 56ff 41be f183 5fbe 1ac5 c2be
000002c0: af92 b3be a96d 6dbe d419 67be 3a09 aabe
000002d0: c9d4 643d 7354 2b3d 9b62 fcbd 4533 db3d
000002e0: 4297 d53d fe91 01be 77ef 64bd a8a9 5b3d
000002f0: 730b 31be 8729 5f3d e016 7c3e 1f5c 413e
00000300: 96c4 b23d 6b82 633e f225 1f3e 370e 2c3d
00000310: f98f c63d c342 9d3d bf0d 15be ef6c 393d
00000320: b815 d4bb b386 7ebc 6f92 f5bd ce58 ff3c
00000330: 0145 2abe fab3 66bd 9e26 493d bac4 403d
00000340: 1148 ad3d 28ac 803b 51a2 86bc 6852 853e
00000350: 7675 f63c c892 a53d b939 663e 47fe b63d
00000360: 6b82 78be cb2b 78bd 371c 39bd 4f5a 10be
00000370: 2e66 eabd 55cd 533c dc0f 6bbe d2e8 76be
00000380: f5a2 033d 997d 023e b220 0c3e 2d1a 9abd
00000390: ddc2 1a3e 6261 543d fcee 27bd 8d23 123e
000003a0: de03 bbbc ea68 e13d 0f11 a93c 6cad bb3d
000003b0: bd06 523e f0a7 0d3e 9290 6b3e 321c 523e
000003c0: 532b df3d 0b90 4f3e 86f4 1d3e a418 1abe
000003d0: a0c4 c2be 5875 debe 80cb 43be 67f3 a3be
000003e0: 661b 57be a421 5cbe c9d0 98be 19ea 49be
000003f0: c571 213e d167 173e 5183 96bd 1f94 143e

bias f4 [8]
0.018929755 -0.018831866 -0.08085531 -0.18470262 -0.40959907 -0.35691997 -0.10416152 -0.1218577
00000000: 9312 9b3c 4945 9abc 7897 a5bd af22 3dbe
00000010: f8b6 d1be 37be b6be a352 d5bd 8890 f9bd

weight f4 [8]
1.3749337 1.1306585 1.0884315 1.3409576 1.0031195 1.1922579 1.2995 0.8095275
00000000: d4fd af3f 6bb9 903f b951 8b3f 80a4 ab3f
00000010: 3866 803f e89b 983f 0456 a63f 323d 4f3f

bias f4 [8]
0.020362874 -0.068451606 0.082435414 -0.2999344 0.22040185 -0.26554534 -0.3617162 0.10074493
00000000: 0bd0 a63c 5b30 8cbd e6d3 a83d 0091 99be
00000010: 06b1 613e 8ff5 87be de32 b9be 5c53 ce3d

running_mean f4 [8]
7.832276 -9.278619 7.136873 9.927471 -2.319873 2.516795 4.5157695 0.16748609
00000000: 01a2 fa40 3975 14c1 4361 e440 ecd6 1e41
00000010: cd78 14c0 2b13 2140 2f81 9040 7981 2b3e

running_var f4 [8]
13.330582 21.134184 6.8903737 12.788213 12.617844 23.886103 43.266888 5.3619914
00000000: 104a 5541 cf12 a941 f17d dc40 859c 4c41
00000010: b0e2 4941 bd16 bf41 4b11 2d42 6f95 ab40

weight f4 [16, 8, 3, 3]
0.10732661 0.36193085 0.22739846 0.2959653 0.22327743 0.039746024 0.1734397 0.13437743
0.08463887 0.09898733 0.23888029 0.18534926 0.21535218 0.31833434 0.14370322 0.17273831
0.25424612 0.091567695 0.03211945 -0.08200791 -0.079006 0.034371883 0.016326826 -0.024461828
0.05718728 -0.07836983 -0.0151031 -0.15352395 -0.16882275 -0.08248621 -0.09626407 -0.1676712
-0.07776503 -0.060398698 -0.1219096 -0.13475722 -0.030170407 0.190244 -0.009472908 0.015338077
0.17482097 0.11165305 0.09957211 0.018313404 0.079667255 -0.009937136 0.20815356 0.080559835
0.17425057 0.058203336 0.17956422 0.13392672 0.21861014 0.17817062 0.07930309 0.0036408787
0.097370125 0.031145666 0.019507263 0.15602688 0.008095832 0.008573402 0.118922934 -0.0008489158
0.057550695 -0.049628858 0.066383794 -0.14119993 -0.089376144 -0.0706517 -0.048788898 0.10639899
0.22708957 0.44224775 0.58959466 -0.009856336 0.3159046 0.49533033 0.05840299 0.2550904
0.26506525 0.056424048 0.28492138 0.32297307 0.012028373 -0.0019779531 0.23079118 0.09194061
0.18334669 0.10669618 0.24163374 0.20274375 0.1962522 0.40138632 0.38221505 0.21776363
0.37528792 0.27567518 0.1706176 0.43403402 0.30729854 0.21865785 0.31505084 0.3183792
0.30310592 0.40228155 0.32153475 0.11413482 0.05993105 0.30829945 0.34586617 0.13525525
0.3066914 0.24264252 0.032668527 0.11400178 0.37384886 0.040423755 0.16509381 0.30420366
0.010431684 0.16550365 0.043833528 -0.07394718 -0.03428451 0.020996358 -0.02492426 0.18408106
0.16045967 0.014925468 -0.06972976 0.01921562 -0.15137643 0.04554294 0.10460777 0.21603133
0.046679825 -0.10895374 0.2162668 0.12206771 0.13481136 0.10456973 0.15318473 0.029125722
0.036855243 -0.021075604 -0.13966504 0.013718216 -0.010355436 -0.011564184 0.029080052 0.047351852
-0.048267916 -0.09842782 -0.24141267 -0.24203588 -0.11879322 -0.12444979 -0.09249725 -0.013686574
-0.035771128 -0.041278824 -0.15644473 -0.15810636 -0.035375286 -0.15567935 -0.14799383 -0.1072262
-0.13809079 -0.009360255 -0.076637305 -0.2200081 -0.10906377 -0.0070060412 -0.2971823 -0.35037023
-0.06265996 -0.17770718 -0.21988454 -0.25731134 -0.11602808 -0.16225867 -0.11739672 -0.14719966
-0.06361908 -0.23980188 -0.0038494458 -0.15892363 -0.09094243 0.17635074 0.21918942 0.120131895
0.15210716 0.22468011 0.17769016 0.3068188 0.3041031 0.16707797 0.23172422 0.16514383
0.20555617 0.27159035 0.26709327 0.22988129 0.21829276 0.1831092 0.07193035 -0.1964268
-0.11474237 -0.07184733 -0.23985513 -0.36485845 -0.1029314 -0.3270876 -0.23493527 -0.24863675
0.2795506 0.39811936 0.12666681 0.58519036 0.46802196 0.11528216 0.41667077 0.5114459
0.09402343 0.17119919 0.13207498 -0.08074259 0.24176858 0.24535313 0.16757752 0.088783056
0.12694845 0.1558542 0.07654427 -0.046457667 -0.066772744 -0.006402067 -0.14062841 -0.0067352094
0.084100395 -0.12514658 0.018303659 -0.02652877 -0.046816625 0.03373744 0.0029378922 -0.16527618
-0.17434536 0.0062194546 -0.19251236 0.014037625 0.012983017 0.04329872 -0.00010568707 -0.061118867
00000000: 0ece db3d 004f b93e 24db 683e c488 973e
00000010: d7a2 643e bacc 223d 2d9a 313e 3d9a 093e
00000020: 2557 ad3d dfb9 ca3d 099d 743e 32cc 3d3e
00000030: 4885 5c3e b8fc a23e f026 133e 50e2 303e
00000040: 8c2c 823e d887 bb3d af8f 033d c3f3 a7bd
00000050: e6cd a1bd 88c9 0c3d d6bf 853c 2c64 c8bc
00000060: 363d 6a3d 5d80 a0bd fe72 77bc 6235 1dbe
00000070: dfdf 2cbe 88ee a8bd 1926 c5bd 00b2 2bbe
00000080: 4643 9fbd a064 77bd beab f9bd ccfd 09be
00000090: ee27 f7bc 53cf 423e 4234 1bbc 8f4c 7b3c
000000a0: 4504 333e 5baa e43d 76ec cb3d fe05 963c
000000b0: 9628 a33d 5fcf 22bc 3526 553e 8efc a43d
000000c0: be6e 323e 9f66 6e3d afdf 373e 1624 093e
000000d0: 56db 5f3e 5c72 363e a969 a23d cf9b 6e3b
000000e0: fd69 c73d 3225 ff3c b2cd 9f3c 83c5 1f3e
000000f0: 61a4 043c 7477 0c3c de8d f33d c689 5eba
00000100: 47ba 6b3d a147 4bbd 3af4 873d b796 10be
00000110: d70a b7bd d7b1 90bd ded6 47bd b7e7 d93d
00000120: 2b8a 683e 4c6e e23e adef 163f 787c 21bc
00000130: 3fbe a13e f09b fd3e f937 6f3d 359b 823e
00000140: a2b6 873e e71c 673d 37e1 913e ba5c a53e
00000150: a712 453c 8ca0 01bb 8654 6c3e 5c4b bc3d
00000160: 3cbf 3b3e 8783 da3d d66e 773e 0f9c 4f3e
00000170: 56f6 483e 8282 cd3e b1b1 c33e 6efd 5e3e
00000180: bd25 c03e 4c25 8d3e 61b6 2e3e b539 de3e
00000190: 3c56 9d3e d8e7 5f3e 584e a13e 9902 a33e
000001a0: b330 9b3e d9f7 cd3e 34a0 a43e 84bf e93d
000001b0: 437a 753d 6dd9 9d3e 5f15 b13e 5a80 0a3e
000001c0: a806 9d3e 4877 783e 6fcf 053d c479 e93d
000001d0: 1e69 bf3e 6193 253d 5a0e 293e 95c0 9b3e
000001e0: a7e9 2a3c ca79 293e c98a 333d 9e71 97bd
000001f0: ea6d 0cbd 8e00 ac3c f62d ccbc bf7f 3c3e
00000200: 8a4f 243e f389 743c 7ace 8ebd 136a 9d3c
00000210: 6c02 1bbe 3c8b 3a3d 993c d63d 5137 5d3e
00000220: 5833 3f3d 2323 dfbd 0b75 5d3e a3fe f93d
00000230: fd0b 0a3e a828 d63d 75dc 1c3e 1199 ee3c
00000240: 86f5 163d bfa6 acbc 5a04 0fbe 5ec2 603c
00000250: d9a9 29bc b477 3dbc 4a39 ee3c 04f4 413d
00000260: 94b4 45bd 8694 c9bd e234 77be 41d8 77be
00000270: dc49 f3bd 88df febd 336f bdbd a73d 60bc
00000280: bf84 12bd fc13 29bd 0c33 20be a2e6 21be
00000290: ade5 10bd 686a 1fbe b28b 17be 6999 dbbd
000002a0: ac67 0dbe c15b 19bc 05f4 9cbd ce49 61be
000002b0: d35c dfbd ef92 e5bb 4728 98be ba63 b3be
000002c0: dd53 80bd dff8 35be 6a29 61be 50be 83be
000002d0: 21a0 edbd 2327 26be b16d f0bd 82bb 16be
000002e0: b84a 82bd a08e 75be fc46 7cbb e0bc 22be
000002f0: 0640 babd 4a95 343e 3173 603e b607 f63d
00000300: fbc1 1b3e 8b12 663e 69f4 353e 5b17 9d3e
00000310: 67b3 9b3e 7d16 2b3e 1d49 6d3e 771b 293e
00000320: 517d 523e e40d 8b3e 73c0 883e 0066 6b3e
00000330: 2388 5f3e fa80 3b3e 3850 933d 1b24 49be
00000340: 0cfe eabd b124 93bd 959c 75be bace babe
00000350: b3cd d2bd 0778 a7be df92 70be a29a 7ebe
00000360: 4221 8f3e 4dd6 cb3e f2b4 013e 09cf 153f
00000370: 93a0 ef3e 0e19 ec3d df55 d53e 1eee 023f
00000380: 5b8f c03d d74e 2f3e aa3e 073e 5f5c a5bd
00000390: 2f92 773e da3d 7b3e 7199 2b3e e4d3 b53d
000003a0: c6fe 013e 3e98 1f3e 3ec3 9c3d 654a 3ebd
000003b0: 26c0 88bd 6ec8 d1bb e500 10be 08b3 dcbb
000003c0: d43c ac3d 6d26 00be 8ef1 953c dd52 d9bc
000003d0: cac2 3fbd 4530 0a3d a789 403b 293e 29be
000003e0: 9787 32be 91cc cb3b f621 45be 11fe 653c
000003f0: b8b6 543c 005a 313d 50a4 ddb8 c757 7abd

bias f4 [16]
0.024728308 -0.032089062 0.03470785 0.047594983 0.018906875 -0.040359493 -0.0963002 0.070343435
0.12257081 0.11185297 -0.061194357 0.076868504 0.10106357 0.03148345 0.00030511606 0.008592829
00000000: 0593 ca3c d26f 03bd d229 0e3d f5f2 423d
00000010: 97e2 9a3c ff4f 25bd 0a39 c5bd 3810 903d
00000020: 6806 fb3d 2c13 e53d efa6 7abd 3c6d 9d3d
00000030: 6bfa ce3d caf4 003d fcf7 9f39 f0c8 0c3c

weight f4 [16]
0.61428297 1.0139445 0.96246606 0.81413084 0.86615205 1.2346604 0.73662126 0.8536073
0.92780316 0.76735425 0.94781476 0.72880125 1.1909823 0.90126115 1.329575 1.1007167
00000000: a641 1d3f efc8 813f 2d64 763f e16a 503f
00000010: 24bc 5d3f 5a09 9e3f 3693 3c3f 0286 5a3f
00000020: 8284 6d3f 5471 443f fda3 723f b892 3a3f
00000030: 1c72 983f 0db9 663f 832f aa3f 49e4 8c3f

bias f4 [16]
-0.22491698 1.3436797 -0.46897182 -0.834699 -1.1007183 -0.5166433 -0.39517868 -0.80843264
0.6039972 -0.6631618 -0.6165612 1.206168 0.042286914 -0.43978894 -0.27754542 -0.6249711
00000000: a350 66be b2fd ab3f 131d f0be d5ae 55bf
00000010: 56e4 8cbf bc42 04bf dc54 cabe 71f5 4ebf
00000020: 8f9f 1a3f f9c4 29bf f4d6 1dbf b763 9a3f
00000030: 0b35 2d3d 042c e1be 6f1a 8ebe 1bfe 1fbf

running_mean f4 [16]
2.314214 5.68891 -1.2015151 5.138315 4.1077447 0.12752482 1.9876645 4.873199
-1.8674575 3.9563608 -0.0018091301 -0.79001456 4.9152718 2.1267536 4.0319724 -3.104326
00000000: 151c 1440 8d0b b640 3fcb 99bf 146d a440
00000010: a572 8340 de95 023e ca6b fe3f 3ff1 9b40
00000020: d908 efbf 0435 7d40 5520 edba 653e 4abf
00000030: e849 9d40 bb1c 0840 eb05 8140 47ad 46c0

running_var f4 [16]
11.170797 31.37224 10.13043 48.5772 37.653946 2.7805586 11.91484 30.790846
11.044207 31.640999 9.457508 9.733751 19.256416 15.257984 24.008335 14.195087
00000000: 96bb 3241 59fa fa41 3e16 2241 0e4f 4242
00000010: a49d 1642 acf4 3140 2fa3 3e41 a753 f641
00000020: 12b5 3041 c420 fd41 f451 1741 72bd 1b41
00000030: 240d 9a41 b420 7441 1211 c041 141f 6341

weight f4 [16, 16, 3, 3]
0.0028797786 0.14208335 0.050686024 0.019922057 0.0925766 0.20243941 -0.03852914 0.11238897
0.10418633 0.11610216 0.14839265 0.03834127 0.1286608 0.1210132 0.11326268 0.15245305
0.3127789 0.14308622 -0.22754186 -0.042961363 -0.025323657 -0.21245135 -0.06349825 -0.01239019
-0.31169355 -0.20491302 -0.23327325 -0.22893316 -0.07848556 -0.10083091 -0.15563305 0.080762945
-0.026300658 -0.4284936 -0.10206164 -0.18938278 -0.20283 -0.06426946 -0.12915775 -0.21670726
-0.09664274 -0.05075894 -0.30158144 -0.26034936 -0.19539756 0.0671147 0.23079616 0.20884873
0.19199595 0.4293087 0.34447262 0.18681568 0.27978382 0.30987877 0.17309256 0.2495752
0.1999725 0.19356535 0.33212608 0.26425552 0.11914923 0.18262652 0.19235228 -0.0045258207
0.028530287 0.055835824 -0.13138118 0.0024302378 0.043179464 -0.16501372 -0.034064364 -0.047452092
-0.00057815126 -0.15457544 -0.16466346 -0.04947858 -0.07309003 -0.10876577 0.099682696 -0.06463669
0.032071643 -0.0030145384 -0.009805391 0.1551278 0.025540577 0.15077548 0.05577511 -0.018606154
-0.043770496 0.11171932 -0.20278342 -0.1967503 -0.0065955813 -0.22450504 -0.22107594 -0.16107124
-0.24294612 -0.10745696 -0.20437437 0.3877674 0.26579955 0.19982846 0.35482895 0.28525293
0.25125566 0.46356794 0.41056845 0.34725994 0.3626853 0.33768973 0.35087052 0.29243296
0.31705534 0.42849594 0.2726784 0.3234023 0.4191803 -0.16522048 0.032677565 -0.015650785
-0.039969683 -0.077616215 -0.15608172 -0.19700906 -0.12057563 -0.13141496 0.38490438 0.40090677
0.52590454 0.45304966 0.49141473 0.43592116 0.47533998 0.52992725 0.56035787 0.020605376
0.27858925 0.13614967 0.16046719 0.16643985 0.29601732 0.095146835 0.11580179 0.119210385
-0.16897194 -0.23176755 -0.22312021 -0.1664863 -0.30854726 -0.15706177 -0.23076184 -0.15384398
-0.13097481 0.09324123 0.06324189 0.15669577 0.07962241 -0.01826157 0.101267785 -0.05799178
-0.024821823 0.06529325 0.008040322 -0.12628001 -0.09653979 0.0273418 -0.027984202 -0.04927937
0.0119242845 -0.036785934 0.020198172 -0.16279998 -0.13283122 -0.19817275 -0.18466805 -0.28975013
-0.22063944 -0.033667564 -0.12385205 -0.07086729 -0.06305065 -0.15893693 -0.047340456 -0.16897121
-0.19381934 -0.10754637 -0.034274668 -0.10921434 -0.053739466 -0.1319283 -0.089159116 -0.1537892
-0.083414614 -0.14101613 -0.038727734 -0.012257212 -0.17318502 -0.061033186 -0.035714995 -0.09644779
-0.028620627 0.01585472 -0.10412964 -0.0051903706 -0.10449631 -0.19280855 -0.079191685 -0.021308662
-0.1881588 0.0056301304 -0.09673544 -0.13408273 -0.079193674 -0.10566972 -0.12722284 -0.06914528
0.14263378 0.13856874 0.1731514 0.07566864 0.10802044 0.11303872 0.16515294 0.067448
0.08126727 -0.11035379 -0.17600198 -0.25810874 -0.25792137 -0.37384635 -0.31272003 -0.1474246
-0.2548684 -0.10308468 -0.07195404 -0.08508203 2.7502932e-05 -0.024029834 -0.07516114 -0.087340176
-0.050465908 -0.057495862 -0.08761634 0.19336946 0.21023637 0.1989611 0.23857947 0.1467316
0.15045348 0.19238102 0.090565264 0.14312632 0.018159352 0.0477212 0.05598815 -0.04873526
00000000: abba 3c3b 4c7e 113e 269c 4f3d 9533 a33c
00000010: cd98 bd3d 474c 4f3e bbd0 1dbd 302c e63d
00000020: a55f d53d f8c6 ed3d 3ef4 173e bc0b 1d3d
00000030: a8bf 033e c5d5 f73d 44f6 e73d a71c 1c3e
00000040: 8e24 a03e 3285 123e bc00 69be 41f8 2fbd
00000050: 8f73 cfbc d98c 59be 5f0b 82bd 3900 4bbc
00000060: 4c96 9fbe b8d4 51be 2fdf 6ebe 746d 6abe
00000070: 0abd a0bd 7080 cebd 455e 1fbe 0b67 a53d
00000080: 7a74 d7bc 8363 dbbe b105 d1bd 8fed 41be
00000090: abb2 4fbe b59f 83bd ee41 04be 82e8 5dbe
000000a0: a1ec c5bd 9be8 4fbd e268 9abe 834c 85be
000000b0: 4c16 48be 6f73 893d d455 6c3e 71dc 553e
000000c0: 969a 443e 5ace db3e b75e b03e 9c4c 3f3e
000000d0: d33f 8f3e 6ea8 9e3e 2d3f 313e a490 7f3e
000000e0: 97c5 4c3e ff35 463e 6e0c aa3e 804c 873e
000000f0: 8304 f43d 7202 3b3e fff7 443e 564d 94bb
00000100: 59b8 e93c 1bb4 643d ca88 06be a044 1f3b
00000110: f3dc 303d 5bf9 28be 1387 0bbd 205d 42bd
00000120: 138f 17ba 0649 1ebe 8a9d 28be 0daa 4abd
00000130: 3ab0 95bd 97c0 debd 7126 cc3d 3e60 84bd
00000140: 8e5d 033d 908f 45bb caa6 20bc d2d9 1e3e
00000150: 793a d13c e364 1a3e 7174 643d ef6b 98bc
00000160: b148 33bd 19cd e43d 75a6 4fbe e978 49be
00000170: bf1f d8bb a6e4 65be bb61 62be dcef 24be
00000180: dec6 78be 6512 dcbd 8447 51be 7389 c63e
00000190: e116 883e d59f 4c3e 24ac b53e ac0c 923e
000001a0: 95a4 803e c758 ed3e 0736 d23e 0ecc b13e
000001b0: e3b1 b93e abe5 ac3e 4da5 b33e c6b9 953e
000001c0: 1455 a23e d263 db3e 819c 8b3e fc94 a53e
000001d0: cd9e d63e 8f2f 29be e9d8 053d 1336 80bc
000001e0: 40b7 23bd 40f5 9ebd e3d3 1fbe bebc 49be
000001f0: 5bf0 f6bd a591 06be 3012 c53e a743 cd3e
00000200: aea1 063f 20f6 e73e b69a fb3e 0f31 df3e
00000210: c35f f33e 50a9 073f 9d73 0f3f 9bcc a83c
00000220: 40a3 8e3e d26a 0b3e 8351 243e 356f 2a3e
00000230: 958f 973e 58dc c23d 7d29 ed3d 9324 f43d
00000240: fb06 2dbe 7954 6dbe a079 64be 627b 2abe
00000250: e8f9 9dbe cdd4 20be d54c 6cbe 4789 1dbe
00000260: 431e 06be 42f5 be3d f784 813d db74 203e
00000270: 1311 a33d 4a99 95bc 7c65 cf3d ca88 6dbd
00000280: 2357 cbbc 78b8 853d 8ebb 033c 8c4f 01be
00000290: a7b6 c5bd e9fb df3c 203f e5bc 2ad9 49bd
000002a0: 135e 433c d9ac 16bd a376 a53c 0ab5 26be
000002b0: e804 08be cced 4abe 9f19 3dbe 215a 94be
000002c0: 4eef 61be 00e7 09bd 25a6 fdbd df22 91bd
000002d0: b320 81bd 5dc0 22be 11e8 41bd ca06 2dbe
000002e0: 9478 46be 4541 dcbd 9863 0cbd c5ab dfbd
000002f0: ea1d 5cbd 3618 07be 0e99 b6bd eb7a 1dbe
00000300: 48d5 aabd 8866 10be f9a0 1ebd 79d2 48bc
00000310: 6a57 31be effd 79bd e349 12bd 6b86 c5bd
00000320: ce75 eabc c2e1 813c ec41 d5bd fc13 aabb
00000330: 2902 d6bd 9b6f 45be 402f a2bd 818f aebc
00000340: b3ac 40be f57c b83b 3b1d c6bd fc4c 09be
00000350: 4b30 a2bd 5e69 d8bd b446 02be 0a9c 8dbd
00000360: 970e 123e f7e4 0d3e 9a4e 313e 29f8 9a3d
00000370: d239 dd3d d880 e73d da1d 293e 2d22 8a3d
00000380: 746f a63d 2b01 e2bd dd39 34be d426 84be
00000390: 450e 84be ca68 bfbe d71c a0be 79f6 16be
000003a0: 1c7e 82be 101e d3bd a45c 93bd 7d3f aebd
000003b0: 19b6 e637 37da c4bc 15ee 99bd 68df b2bd
000003c0: 57b5 4ebd c880 6bbd 3270 b3bd a502 463e
000003d0: 3448 573e 75bc 4b3e 2d4e 743e cf40 163e
000003e0: 7a10 1a3e 88ff 443e 487a b93d b58f 123e
000003f0: ecc2 943c 4e77 433d d553 653d a09e 47bd

bias f4 [16]
-0.062417313 0.0752967 0.2919811 0.11818384 -0.081524536 0.07566024 0.2095338 0.06934873
-0.05616529 0.0019710618 -0.1767219 0.13459574 -0.073446944 0.018344488 -0.14899784 0.024979748
00000000: 4ca9 7fbd 2835 9a3d 8c7e 953e 5e0a f23d
00000010: 56f6 a6bd c2f3 9a3d 0790 563e b506 8e3d
00000020: 930d 66bd ee2c 013b 96f6 34be 77d3 093e
00000030: 5a6b 96bd 2e47 963c e492 18be 54a2 cc3c

weight f4 [16]
0.98194647 1.1377453 1.2071525 1.1369846 0.83442706 0.48853227 1.2223692 1.2463775
0.83275187 0.6240253 1.2940323 0.8707428 1.1814784 0.57652247 1.0076785 0.9459754
00000000: d860 7b3f a3a1 913f f983 9a3f b688 913f
00000010: 039d 553f e720 fa3e 9876 9c3f 4c89 9f3f
00000020: 3a2f 553f 1fc0 1f3f daa2 a53f 00e9 5e3f
00000030: af3a 973f fa96 133f 9cfb 803f 722b 723f

bias f4 [16]
0.40053153 0.20910932 0.24799377 0.07559871 0.022320824 0.24075662 0.110419326 0.228347
0.06638039 -0.12050988 -0.14814928 0.03318799 0.48762763 0.22725701 0.26434398 0.10968513
00000000: 7812 cd3e c120 563e 14f2 7d3e 7fd3 9a3d
00000010: 29da b63c e788 763e 8723 e23d ccd3 693e
00000020: 71f2 873d e2cd f6bd 72b4 17be 21f0 073d
00000030: 54aa f93e 10b6 683e 1858 873e 99a2 e03d

running_mean f4 [16]
6.0422397 9.193021 9.5052805 2.6719985 3.0278795 1.0710231 5.541586 8.16187
-3.2736168 -4.041379 10.88018 10.683749 12.332425 9.572831 3.3885577 4.57194
00000000: 075a c140 9d16 1341 a115 1841 0602 2b40
00000010: c7c8 4140 4917 893f ac54 b140 0597 0241
00000020: f082 51c0 fa52 81c0 3815 2e41 a3f0 2a41
00000030: 9d51 4541 512a 1941 21de 5840 554d 9240

running_var f4 [16]
177.48038 70.52236 113.32619 167.24467 126.89698 86.03665 215.33018 80.178055
52.33037 28.599062 109.86627 174.07332 121.562935 179.30412 104.63099 110.27584
00000000: fa7a 3143 730b 8d42 02a7 e242 a33e 2743
00000010: 41cb fd42 c412 ac42 8754 5743 2a5b a042
00000020: 4d52 5142 e1ca e441 88bb db42 c512 2e43
00000030: 3920 f342 db4d 3343 1143 d142 3b8d dc42

weight f4 [32, 16, 3, 3]
0.29396665 0.24632329 0.30187967 0.2456724 0.20097446 0.21184367 0.23336297 0.124479435
0.22040948 0.15696336 0.104750015 0.28496757 0.14956017 0.11249699 0.15923554 0.27049848
0.2151838 0.22584608 0.28974828 0.1613051 0.32999727 0.14922412 0.13508883 0.24998535
0.23301783 0.20198047 0.24717315 0.3391638 0.30569366 0.34022364 0.21450262 0.3150774
0.32689494 0.20967916 0.18836004 0.1610942 0.06091061 0.06861211 0.14193387 0.07435444
0.0043318723 0.021870399 -0.08757604 -0.052877806 -0.069971204 0.0685477 0.08529686 0.13016105
0.015367172 0.047275767 0.08861325 -0.0027965512 0.10144434 0.031851023 0.018494802 0.17066164
0.1662706 0.075862795 0.034298968 0.06021466 0.08547658 0.032201573 0.12373094 0.20265281
-0.014667749 0.12743446 0.21313466 0.07912532 0.16169056 0.30179894 0.21092907 0.3703829
0.07876328 0.102045454 0.06787186 0.0029716317 -0.0021767132 0.03127148 -0.06568358 -0.057754364
-0.10639248 -0.04591634 -0.012287242 0.061164316 -0.07590036 0.08791794 0.07485125 -0.1643026
-0.10125921 -0.08069151 0.058647994 -0.03302207 0.17865404 0.043959685 -0.085966304 0.14133285
0.24694332 0.12759311 0.3495943 -0.009428675 0.08930546 0.16132936 0.032381907 0.12847304
0.002881586 -0.07804763 -0.050872296 -0.006526702 0.29901305 0.21458533 0.3634732 0.34953988
0.2537313 0.27666578 0.45242047 0.2960174 0.39738417 0.09057958 0.23187844 0.23599179
0.14177167 0.06649707 0.15982085 0.11341536 0.11024535 0.14516816 0.16061133 0.06612548
0.099351496 0.1105236 0.12692703 0.17928648 0.055181284 0.17809394 0.19613704 0.045599915
-0.043636702 -0.0033626186 0.048998777 0.040221516 -0.10330185 0.016944194 0.0108743785 -0.08320627
-0.064502075 -0.10267503 -0.05403629 -0.16571309 -0.11345934 -0.003504588 -0.15019749 -0.123032555
-0.14667831 0.02267487 0.0270174 -0.009605176 0.09818277 0.09440782 0.075968385 0.048432093
-0.026055483 0.03994678 0.2350792 0.1349365 0.18504223 0.144046 0.13413517 0.271698
0.2163385 0.14101575 0.25053948 0.0928876 0.11025493 0.14625701 0.014744555 0.008058324
-0.01754254 -0.025728982 0.06451746 -0.03666276 0.005368299 0.006899246 0.13302918 0.07462625
0.07162997 0.07522317 0.11225733 0.077341504 0.0066312775 -0.122483514 -0.121150315 -0.0862331
-0.023549505 -0.09817112 -0.087521285 -0.042352878 -0.10051322 -0.100461364 0.31813747 0.279155
0.29161736 0.36363357 0.26305383 0.31725997 0.36345044 0.19660869 0.30771866 -0.3523321
-0.21703278 -0.28517428 -0.2619653 -0.03504937 -0.22096969 -0.4326247 -0.15783279 -0.29559973
-0.1771494 -0.12694812 -0.19569339 -0.13995567 -0.22288533 -0.1056439 -0.22424382 -0.15547833
-0.23861963 0.0018978678 -0.1240997 -0.0064922427 -0.14714767 -0.1568735 -0.048827533 -0.14609686
-0.1170673 -0.14587362 -0.3196688 -0.28196335 -0.38197893 -0.33958048 -0.15440767 -0.3137146
-0.33139512 -0.33765754 -0.3348676 -0.051668085 -0.025723774 0.04351691 -0.027896376 0.043065786
-0.009629262 -0.08817214 -0.026638934 0.037963945 -0.02663709 0.14069249 -0.068593904 0.10659076
00000000: cc82 963e 2c3c 7c3e f98f 9a3e 8c91 7b3e
00000010: 40cc 4d3e 8ced 583e b4f6 6e3e 13ef fe3d
00000020: 06b3 613e 01bb 203e 2d87 d63d 45e7 913e
00000030: 4d26 193e d264 e63d a40e 233e c77e 8a3e
00000040: 2459 5c3e 3244 673e e359 943e 2a2d 253e
00000050: 67f5 a83e 35ce 183e ba54 0a3e 29fc 7f3e
00000060: 3a9c 6e3e f8d3 4e3e f51a 7d3e e1a6 ad3e
00000070: e183 9c3e cb31 ae3e 93a6 5b3e d351 a13e
00000080: c65e a73e 22b6 563e 74e1 403e e1f5 243e
00000090: 677d 793d 8284 8c3d 1d57 113e 2447 983d
000000a0: 61f2 8d3b 8d29 b33c 115b b3bd 6696 58bd
000000b0: 104d 8fbd bd62 8c3d 1fb0 ae3d f048 053e
000000c0: 97c6 7b3c 3ca4 413d dd7a b53d 5846 37bb
000000d0: 0dc2 cf3d 3876 023d 6982 973c edc1 2e3e
000000e0: d742 2a3e f45d 9b3d 137d 0c3d a6a3 763d
000000f0: 580e af3d cce5 033d a666 fd3d 3884 4f3e
00000100: 0051 70bc 2e7e 023e f93f 5a3e 750c a23d
00000110: 3692 253e 6485 9a3e cafd 573e d4a2 bd3e
00000120: a44e a13d 35fd d03d 6700 8b3d b5bf 423b
00000130: 30a7 0ebb 8616 003d 1d85 86bd d78f 6cbd
00000140: 4de4 d9bd c612 3cbd 6e50 49bc 6f87 7a3d
00000150: a671 9bbd 520e b43d 9d4b 993d f13e 28be
00000160: fd60 cfbd 9741 a5bd e138 703d 2642 07bd
00000170: 16f1 363e 120f 343d 1a0f b0bd 8fb9 103e
00000180: b6de 7c3e c5a7 023e 06fe b23e bb7a 1abc
00000190: c8e5 b63d 8633 253e e4a2 043d 708e 033e
000001a0: fed8 3c3b 70d7 9fbd 785f 50bd f2dd d5bb
000001b0: 3d18 993e 42bc 5b3e 2919 ba3e e4f6 b23e
000001c0: 12e9 813e 23a7 8d3e a8a3 e73e 988f 973e
000001d0: f075 cb3e c981 b93d 8b71 6d3e d5a7 713e
000001e0: 982c 113e 9e2f 883d 14a8 233e 5046 e83d
000001f0: 50c8 e13d f6a6 143e 4c77 243e cc6c 873d
00000200: cc78 cb3d 325a e23d 29f9 013e e096 373e
00000210: c505 623d 425e 363e 26d8 483e fac6 3a3d
00000220: 66bc 32bd 615f 5cbb f1b2 483d 51bf 243d
00000230: ec8f d3bd 8dce 8a3c 732a 323c 0d68 aabd
00000240: aa19 84bd 4947 d2bd 2855 5dbd b1b0 29be
00000250: 5f5d e8bd 3bad 65bb 5fcd 19be 7ef8 fbbd
00000260: d732 16be a6c0 b93c 9853 dd3c 075f 1dbc
00000270: 0c14 c93d e358 c13d 5095 9b3d bb60 463d
00000280: 4f72 d5bc 3c9f 233d 9ab8 703e cb2c 0a3e
00000290: b67b 3d3e cb80 133e bb5a 093e 001c 8b3e
000002a0: d787 5d3e 6f66 103e b646 803e db3b be3d
000002b0: 56cd e13d 66c4 153e 2593 713c 1007 043c
000002c0: 5fb5 8fbc 96c5 d2bc bb21 843d b12b 16bd
000002d0: 8ee8 af3b 1213 e23b cd38 083e a6d5 983d
000002e0: bcb2 923d 9b0e 9a3d 2ce7 e53d 3965 9e3d
000002f0: 304b d93b a3d8 fabd a81d f8bd fb9a b0bd
00000300: e4ea c0bc f10d c9bd 5c3e b3bd 367a 2dbd
00000310: e0d9 cdbd b0be cdbd eae2 a23e 67ed 8e3e
00000320: df4e 953e 2e2e ba3e feae 863e e66f a23e
00000330: 2d16 ba3e ca53 493e 4d8d 9d3e df64 b4be
00000340: d73d 5ebe 5d02 92be 5120 86be ee8f 0fbd
00000350: e145 62be fc80 ddbe eb9e 21be d958 97be
00000360: a766 35be b0fe 01be d963 48be 8a50 0fbe
00000370: 0d3c 64be d45b d8bd 2ca0 65be b635 1fbe
00000380: b458 74be e0c1 f83a fc27 febd e1bc d4bb
00000390: e1ad 16be 72a3 20be 61ff 47bd 6a9a 15be
000003a0: fbc0 efbd e55f 15be a1ab a3be 805d 90be
000003b0: be92 c3be 7edd adbe 0b1d 1ebe 339f a0be
000003c0: 9fac a9be 73e1 acbe c473 abbe eaa1 53bd
000003d0: aaba d2bc ca3e 323d f186 e4bc c065 303d
000003e0: 0dc4 1dbc 9893 b4bd e539 dabc 1580 1b3d
000003f0: 0736 dabc b111 103e f67a 8cbd 424c da3d

bias f4 [32]
-5.3622937 -5.475524 -5.814531 -6.07806 -5.285953 -6.3483176 -6.247203 -5.5486784
-4.3975616 -4.1066628 -5.4276977 -5.239983 -6.2732224 -4.2164116 -4.3004737 -5.680837
-6.1096635 -5.7896185 -4.5735574 -5.5570965 -5.9576283 -4.131056 -4.2971582 -5.7935324
-5.4088697 -4.820297 -5.335991 -4.503915 -4.5588884 -4.2520914 -8.191212 -4.0309606
00000000: e997 abc0 7e37 afc0 a310 bac0 787f c2c0
00000010: 8726 a9c0 6b25 cbc0 16e9 c7c0 c68e b1c0
00000020: d3b8 8cc0 c869 83c0 b3af adc0 f1ad a7c0
00000030: 3dbe c8c0 d8ec 86c0 7b9d 89c0 6bc9 b5c0
00000040: 5d82 c3c0 8e44 b9c0 955a 92c0 bcd3 b1c0
00000050: e4a4 bec0 9c31 84c0 5282 89c0 9e64 b9c0
00000060: 7615 adc0 df3f 9ac0 70c0 aac0 1220 90c0
00000070: 6ae2 91c0 2211 88c0 340f 03c1 a1fd 80c0

weight f4 [32]
1.2938184 1.1201204 1.1987647 1.2319621 1.1287483 0.8269906 1.0796129 1.049682
0.79307395 1.093872 0.982533 0.8407066 1.1139957 0.9250488 0.867574 0.8174259
1.3501797 1.0796717 0.91388845 1.2061664 0.99426717 1.1451715 1.2261642 1.0873923
0.9157673 0.82306 0.85213464 0.90579945 1.0136373 0.67816865 0.85583574 1.2065028
00000000: d79b a53f 1b60 8f3f 1f71 993f efb0 9d3f
00000010: d37a 903f a8b5 533f c130 8a3f fb5b 863f
00000020: e506 4b3f ff03 8c3f 4887 7b3f 8c38 573f
00000030: 6997 8e3f 00d0 6c3f 5419 5e3f d342 513f
00000040: b0d2 ac3f af32 8a3f 98f4 693f a963 9a3f
00000050: 4b88 7e3f fb94 923f f3f2 9c3f ac2f 8b3f
00000060: ba6f 6a3f 0fb4 523f 7f25 5a3f 79e2 673f
00000070: debe 813f 769c 2d3f 0d18 5b3f af6e 9a3f

bias f4 [32]
0.15945522 0.17255808 0.14676285 -0.053937126 0.14342113 0.080217004 -0.08018964 -0.08459063
0.54982126 0.022331113 0.100537725 0.09315197 -0.14578278 0.0109611405 0.1197451 0.08292567
0.10932622 0.21429527 0.11011214 0.15225641 0.12441118 0.0148476325 0.0005628604 -0.079796344
0.172156 -0.049032312 0.13848819 0.100425504 0.052603472 0.033304427 0.13074136 -0.104722865
00000000: 3b48 233e 11b3 303e 0049 163e 2ded 5cbd
00000010: fddc 123e d048 a43d 773a a4bd da3d adbd
00000020: 16c1 0c3f bdef b63c b9e6 cd3d 76c6 be3d
00000030: 1548 15be 5b96 333c eb3c f53d efd4 a93d
00000040: 6de6 df3d 3870 5b3e 7982 e13d 1be9 1b3e
00000050: 4acb fe3d 7c43 733c ec8c 133a 446c a3bd
00000060: aa49 303e 1bd6 48bd d9cf 0d3e e3ab cd3d
00000070: bd76 573d 396a 083d 10e1 053e f178 d6bd

running_mean f4 [32]
5.319402 -4.365353 2.8466115 -12.679857 1.8175161 -11.32314 -15.397354 -15.144655
-5.924954 -4.7483993 2.274524 0.9093974 -15.434078 -16.622774 -3.20197 1.2327795
0.1796041 -3.2343745 -6.947669 3.2343707 3.0071042 -15.453828 -10.76488 -8.625137
0.64833975 -11.295029 -5.6535945 -10.891105 -5.5128527 -10.331204 -7.9617558 -7.272617
00000000: 8b38 aa40 f9b0 8bc0 e22e 3640 b2e0 4ac1
00000010: 5ea4 e83f 952b 35c1 905b 76c1 8250 72c1
00000020: 3999 bdc0 e3f2 97c0 cd91 1140 45ce 683f
00000030: fcf1 76c1 71fb 84c1 14ed 4cc0 b8cb 9d3f
00000040: 23ea 373e feff 4ec0 4e53 dec0 eeff 4e40
00000050: 6574 4040 e142 77c1 f33c 2cc1 9000 0ac1
00000060: 98f9 253f 70b8 34c1 3fea b4c0 f741 2ec1
00000070: 4a69 b0c0 9d4c 25c1 b4c6 fec0 47b9 e8c0

running_var f4 [32]
68.285255 44.96117 44.49965 23.492878 30.812288 17.947355 37.164967 41.642246
32.60033 125.74437 36.891964 32.916508 34.594177 119.286804 43.57215 36.91502
23.82241 21.38835 61.059174 39.806904 53.653267 128.76163 34.618126 31.250072
45.707417 40.478996 21.805717 106.26615 93.24982 29.320688 3.0453212 99.084885
00000000: 0d92 8842 3dd8 3342 a4ff 3142 6af1 bb41
00000010: 917f f641 2f94 8f41 eda8 1442 a991 2642
00000020: bd66 0242 1e7d fb42 5f91 1342 81aa 0342
00000030: 7060 0a42 d892 ee42 e249 2e42 fba8 1342
00000040: 4c94 be41 571b ab41 983c 7442 453a 1f42
00000050: f29c 5642 fac2 0043 f678 0a42 2600 fa41
00000060: 65d4 3642 7eea 2142 1c72 ae41 4588 d442
00000070: e87f ba42 c590 ea41 8be6 4240 762b c642

weight f4 [32, 32, 3, 3]
0.18089825 0.14608924 0.18409948 0.20124464 0.18680023 0.19699635 0.26014233 0.18421008
0.2253189 -0.21183263 -0.035296004 -0.12116084 -0.16738692 -0.026921974 -0.1590541 -0.2156665
-0.05291348 -0.11510107 0.20148876 0.13052934 0.2097177 0.19935772 0.1990553 0.23046729
0.26287776 0.14606968 0.22135597 -0.23037653 -0.20274092 -0.17660598 -0.30176824 -0.15024449
-0.2576224 -0.27468386 -0.2969416 -0.26341483 0.14954916 0.16117962 0.108899795 0.10534294
0.12602845 0.13313894 0.2141723 0.15535446 0.18613587 -0.13476922 -0.13536443 -0.19074626
-0.13558117 -0.12750758 -0.19690828 -0.06559455 -0.112538114 -0.13775755 -0.08256445 -0.012545181
-0.006800802 -0.031869646 -0.10340221 -0.04444005 -0.094437934 -0.045151103 -0.015301969 -0.056498744
-0.1104425 -0.1666467 -0.035761412 -0.07236019 -0.09962488 -0.14703152 -0.15456204 -0.07609387
-0.20614596 -0.10447572 -0.2959759 -0.28611866 -0.1767108 -0.2445863 -0.3473008 -0.2593877
-0.3837158 0.2545629 0.1322882 0.28973117 0.30393383 0.13547505 0.2728043 0.29932946
0.15278162 0.32782403 0.24925537 0.17052382 0.18126634 0.16238528 0.17406996 0.14639957
0.21082047 0.182423 0.20454657 0.20980431 0.124968894 0.10223121 0.19351083 0.16495924
0.20993266 0.18673328 0.1288313 0.1642886 -0.13760392 -0.11415222 -0.12699433 -0.09852495
-0.16481026 -0.12475721 -0.1603082 -0.15738033 -0.12650679 -0.27142212 -0.21542099 -0.26288807
-0.220774 -0.15681736 -0.20371835 -0.3352877 -0.16755153 -0.357404 0.3115067 0.26945513
0.42865017 0.31770337 0.20343204 0.34969985 0.32244158 0.16410781 0.34897992 0.19859438
0.109050594 0.20231214 0.15343638 0.0869786 0.210389 0.22693877 0.1635023 0.21718119
0.18926898 0.085337445 0.14469327 0.2733401 0.123299204 0.1717985 0.2685579 0.2227612
0.20049343 -0.13602251 -0.07381131 -0.09478463 -0.15763938 0.028562611 -0.11450075 -0.12009773
-0.045079134 -0.12371882 -0.38204238 -0.2278456 -0.31811845 -0.3402285 -0.14433983 -0.35209635
-0.39699203 -0.2399285 -0.31043836 0.14285834 0.055041246 0.09282492 0.10045346 0.117790535
0.15697303 0.2460495 0.17874625 0.24189846 0.23568863 0.16012569 0.2210646 0.28263304
0.19984175 0.17074093 0.33065462 0.29203543 0.23880981 -0.2905466 -0.20812815 -0.30923203
-0.28869653 -0.18882205 -0.21009168 -0.3703416 -0.25594708 -0.3510363 -0.21267433 -0.14002101
-0.24760738 -0.2763852 -0.1259149 -0.2266708 -0.30248103 -0.23927851 -0.32062536 0.3037399
0.28233233 0.37921596 0.21029787 0.14303942 0.31879857 0.25896075 0.14584179 0.28094712
0.1207822 0.02525372 -0.08408735 0.08438663 -0.035746746 0.005131786 0.18176672 0.028690698
-0.020086737 -0.31756765 -0.23210123 -0.28208026 -0.22487117 -0.2064159 -0.29498237 -0.26122168
-0.19963159 -0.31837365 -0.33350158 -0.17632912 -0.27988428 -0.23968175 -0.13544641 -0.20808892
-0.25403872 -0.16470715 -0.29308864 -0.35509226 -0.30638558 -0.36580035 -0.34549102 -0.24082108
-0.28976682 -0.33468074 -0.26914224 -0.41457072 0.26333508 0.08233045 0.15913056 0.17890891
00000000: 643d 393e 6b98 153e 9384 3c3e 1313 4e3e
00000010: 8f48 3f3e 69b9 493e 6031 853e 91a1 3c3e
00000020: ffb9 663e a7ea 58be 8b92 10bd 2d23 f8bd
00000030: 7a67 2bbe 798b dcbc 14df 22be aed7 5cbe
00000040: cebb 58bd 1cba ebbd 1253 4e3e 7ca9 053e
00000050: 3dc0 563e 6e24 4c3e 27d5 4b3e 9eff 6b3e
00000060: ea97 863e 4a93 153e 24ab 623e d3e7 6bbe
00000070: 519b 4fbe 33d8 34be 5e81 9abe b1d9 19be
00000080: 15e7 83be 5da3 8cbe bb08 98be 4fde 86be
00000090: 6a23 193e 450c 253e db06 df3d 0abe d73d
000000a0: 9a0d 013e 9355 083e fc4f 5b3e 3d15 1f3e
000000b0: 679a 3e3e f100 0abe f99c 0abe fd52 43be
000000c0: cad5 0abe 5991 02be 53a2 49be 6f56 86bd
000000d0: 627a e6bd 5110 0dbe 8d17 a9bd 4e8a 4dbc
000000e0: 43d9 debb bf89 02bd 8ac4 d3bd c506 36bd
000000f0: ad68 c1bd 5df0 38bd 1cb5 7abc 3a6b 67bd
00000100: ad2f e2bd 6fa5 2abe 8f7a 12bd 9431 94bd
00000110: 2108 ccbd 6e8f 16be 8345 1ebe 1ad7 9bbd
00000120: ed17 53be 5ef7 d5bd 278a 97be 257e 92be
00000130: adf3 34be d574 7abe 69d1 b1be 77ce 84be
00000140: 6676 c4be 1256 823e 8f76 073e a557 943e
00000150: 379d 9b3e f9b9 0a3e 01ad 8b3e b641 993e
00000160: c972 1c3e 8dd8 a73e cd3c 7f3e cc9d 2e3e
00000170: e29d 393e 5448 263e 653f 323e c5e9 153e
00000180: 52e1 573e 18cd 3a3e a874 513e f1d6 563e
00000190: b1ef ff3d 995e d13d b427 463e 13eb 283e
000001a0: 96f8 563e 0237 3f3e 5aec 033e 453b 283e
000001b0: 0be8 0cbe a4c8 e9bd cd0a 02be 73c7 c9bd
000001c0: 05c4 28be b580 ffbd d527 24be 4f28 21be
000001d0: ff8a 01be d7f7 8abe 5297 5cbe 4499 86be
000001e0: 9412 62be bb94 20be 8b9b 50be d4aa abbe
000001f0: a192 2bbe a8fd b6be ce7d 9f3e 06f6 893e
00000200: 0978 db3e 04aa a23e 7d50 503e dc0b b33e
00000210: 1017 a53e e10b 283e 7fad b23e 535c 4b3e
00000220: eb55 df3d ea2a 4f3e 6d1e 1d3e d621 b23d
00000230: 3770 573e a362 683e 266d 273e bf64 5e3e
00000240: bacf 413e 66c5 ae3d 792a 143e 3cf3 8b3e
00000250: 4b84 fc3d f2eb 2f3e 6c80 893e 831b 643e
00000260: 264e 4d3e 7c49 0bbe 622a 97bd 721e c2bd
00000270: 386c 21be 23fc e93c 5f7f eabd ccf5 f5bd
00000280: e6a4 38bd 4b60 fdbd 0f9b c3be 5b50 69be
00000290: 6ce0 a2be 6e32 aebe d2cd 13be f945 b4be
000002a0: 8a42 cbbe d1af 75be c7f1 9ebe 7549 123e
000002b0: ee72 613d fe1a be3d 8bba cd3d 2a3c f13d
000002c0: 8abd 203e 66f4 7b3e 4209 373e 3bb4 773e
000002d0: 5c58 713e fdf7 233e c25e 623e 47b5 903e
000002e0: 51a3 4c3e b6d6 2e3e 904b a93e ab85 953e
000002f0: 8f8a 743e 86c2 94be 8c1f 55be a953 9ebe
00000300: 08d0 93be 915a 41be 4622 57be 6a9d bdbe
00000310: 7f0b 83be 08bb b3be 4dc7 59be ab61 0fbe
00000320: ca8c 7dbe 5c82 8dbe d6ef 00be 641c 68be
00000330: cbde 9abe 6d05 75be 0229 a4be cc83 9b3e
00000340: dd8d 903e 9828 c23e 5358 573e ed78 123e
00000350: 9139 a33e 8196 843e 8d57 153e 4dd8 8f3e
00000360: a85c f73d e4e0 ce3c fd35 acbd e6d2 ac3d
00000370: 2e6b 12bd 8b28 a83b 0e21 3a3e c108 eb3c
00000380: f18c a4bc 3a98 a2be f2ab 6dbe d36c 90be
00000390: a144 66be b15e 53be ee07 97be d9be 85be
000003a0: 396c 4cbe df01 a3be b8c0 aabe 9f8f 34be
000003b0: fe4c 8fbe 226f 75be 77b2 0abe 4315 55be
000003c0: 5d11 82be fea8 28be b70f 96be a7ce b5be
000003d0: 92de 9cbe 2f4a bbbe 33e4 b0be cd99 76be
000003e0: 515c 94be 465b abbe 03cd 89be 9d42 d4be
000003f0: dbd3 863e de9c a83d 1ff3 223e e633 373e

bias f4 [32]
0.010187855 0.1628754 -0.08000599 -0.17794849 -0.21167845 -0.03441785 -0.12315332 0.10366048
-0.27162957 0.06298012 -0.0025154767 -0.13383146 -0.07523978 0.05501448 -0.08356842 -0.28516334
-0.08765309 -0.0843686 0.016843576 0.11373839 0.011137155 -0.10605075 -0.028209398 -0.17244045
-0.10519101 0.06561754 0.11968624 -0.2956707 0.05051185 0.1121504 -0.06902118 0.101406425
00000000: f6ea 263c cfc8 263e 2eda a3bd 2138 36be
00000010: 3cc2 58be bbf9 0cbd cf37 fcbd f24b d43d
00000020: 0813 8bbe b9fb 803d b2da 24bb 1d0b 09be
00000030: 5017 9abd dd56 613d eb25 abbd ee00 92be
00000040: 7783 b3bd 72c9 acbd 8afb 893c acef e83d
00000050: 9d78 363c 2331 d9bd 6517 e7bc 3b94 30be
00000060: 626e d7bd 7d62 863d 0f1e f53d 2662 97be
00000070: 83e5 4e3d 1caf e53d fa5a 8dbd 2cae cf3d

weight f4 [32]
1.0 1.0 1.0 1.0 1.0 1.0 1.0 1.0
1.0 1.0 1.0 1.0 1.0 1.0 1.0 1.0
1.0 1.0 1.0 1.0 1.0 1.0 1.0 1.0
1.0 1.0 1.0 1.0 1.0 1.0 1.0 1.0
00000000: 0000 803f 0000 803f 0000 803f 0000 803f
00000010: 0000 803f 0000 803f 0000 803f 0000 803f
00000020: 0000 803f 0000 803f 0000 803f 0000 803f
00000030: 0000 803f 0000 803f 0000 803f 0000 803f
00000040: 0000 803f 0000 803f 0000 803f 0000 803f
00000050: 0000 803f 0000 803f 0000 803f 0000 803f
00000060: 0000 803f 0000 803f 0000 803f 0000 803f
00000070: 0000 803f 0000 803f 0000 803f 0000 803f

bias f4 [32]
0.0 0.0 0.0 0.0 0.0 0.0 0.0 0.0
0.0 0.0 0.0 0.0 0.0 0.0 0.0 0.0
0.0 0.0 0.0 0.0 0.0 0.0 0.0 0.0
0.0 0.0 0.0 0.0 0.0 0.0 0.0 0.0
00000000: 0000 0000 0000 0000 0000 0000 0000 0000
00000010: 0000 0000 0000 0000 0000 0000 0000 0000
00000020: 0000 0000 0000 0000 0000 0000 0000 0000
00000030: 0000 0000 0000 0000 0000 0000 0000 0000
00000040: 0000 0000 0000 0000 0000 0000 0000 0000
00000050: 0000 0000 0000 0000 0000 0000 0000 0000
00000060: 0000 0000 0000 0000 0000 0000 0000 0000
00000070: 0000 0000 0000 0000 0000 0000 0000 0000

running_mean f4 [32]
0.0 0.0 0.0 0.0 0.0 0.0 0.0 0.0
0.0 0.0 0.0 0.0 0.0 0.0 0.0 0.0
0.0 0.0 0.0 0.0 0.0 0.0 0.0 0.0
0.0 0.0 0.0 0.0 0.0 0.0 0.0 0.0
00000000: 0000 0000 0000 0000 0000 0000 0000 0000
00000010: 0000 0000 0000 0000 0000 0000 0000 0000
00000020: 0000 0000 0000 0000 0000 0000 0000 0000
00000030: 0000 0000 0000 0000 0000 0000 0000 0000
00000040: 0000 0000 0000 0000 0000 0000 0000 0000
00000050: 0000 0000 0000 0000 0000 0000 0000 0000
00000060: 0000 0000 0000 0000 0000 0000 0000 0000
00000070: 0000 0000 0000 0000 0000 0000 0000 0000

running_var f4 [32]
1.0 1.0 1.0 1.0 1.0 1.0 1.0 1.0
1.0 1.0 1.0 1.0 1.0 1.0 1.0 1.0
1.0 1.0 1.0 1.0 1.0 1.0 1.0 1.0
1.0 1.0 1.0 1.0 1.0 1.0 1.0 1.0
00000000: 0000 803f 0000 803f 0000 803f 0000 803f
00000010: 0000 803f 0000 803f 0000 803f 0000 803f
00000020: 0000 803f 0000 803f 0000 803f 0000 803f
00000030: 0000 803f 0000 803f 0000 803f 0000 803f
00000040: 0000 803f 0000 803f 0000 803f 0000 803f
00000050: 0000 803f 0000 803f 0000 803f 0000 803f
00000060: 0000 803f 0000 803f 0000 803f 0000 803f
00000070: 0000 803f 0000 803f 0000 803f 0000 803f
