parameters_NoPoolsAllowed_Adam_0.01_20.pth (torch, 8791 bytes, 5 tensors)

weight f4 [6, 3, 5, 5]
0	0xbc0a3d28	-0.008437432
1	0xbd15da93	-0.0365854
2	0x3e14667d	0.14492221
3	0xbcd7d8bd	-0.026348466
4	0x3ddd00a6	0.10791139
5	0xbcd46b59	-0.025930094
6	0x3d9cc19e	0.07654117
7	0x3e1f2a08	0.15543377
8	0x3c485b59	0.01222881
9	0x3d12c731	0.035834495
10	0x3c97066f	0.018435685
11	0x3e1ec4ed	0.15504809
12	0x3df86511	0.12128652
13	0x3cfc09f0	0.030766457
14	0x3d8e52e0	0.06949401
15	0x3dfbed1a	0.12301083
16	0x3c273392	0.010205166
17	0x3e061aa1	0.13096096
18	0x3e1b14c8	0.15144646
19	0x3e24d42c	0.16096562
20	0xbd1cafea	-0.038253702
21	0x3c44730c	0.01199032
22	0x3d448aa9	0.0479838
23	0xbc77e50b	-0.015130292
24	0x3d76478a	0.06012682
25	0x3e2722fc	0.16321939
26	0x3d78ceed	0.060744215
27	0x3db87321	0.09006334
28	0x3dac7d4e	0.084223375
29	0x3de0d147	0.109774165
30	0x3d854a78	0.065083444
31	0x3db1c198	0.08679503
32	0x3d4ba003	0.049713146
33	0x3e283a48	0.16428483
34	0x3dfbed5b	0.12301131
35	0x3e0b55cd	0.13606949
36	0x3de97008	0.113983214
37	0xbc2e6d79	-0.0106462175
38	0xbc89dd89	-0.016829269
39	0x3d0fd619	0.03511629
40	0x3bc4ba5d	0.0060036615
41	0x3da3f262	0.08005215
42	0x3d2188d0	0.039437115
43	0x3ac3d296	0.0014940079
44	0xbc7a66d6	-0.015283307
45	0x3de7fda3	0.11327674
46	0x3d2da939	0.04239771
47	0xbb9fe973	-0.0048801242
48	0x3dd376a0	0.1032536
49	0x3e1a028e	0.15040037
50	0x3d961cf7	0.07329743
51	0x3d8f2bc2	0.06990768
52	0x3daa7f5a	0.08325072
53	0x3df46b2b	0.11934503
54	0xbb94ffb6	-0.0045470847
55	0x3e1021f6	0.14075455
56	0x3d4f9f07	0.05068877
57	0x3e1bcd07	0.1521493
58	0x3c8a5cce	0.016889956
59	0x3da5e5ab	0.08100446
60	0x3dd57b93	0.104239605
61	0xbd288b4e	-0.041148476
62	0x3d88fa2d	0.06688342
63	0x3cf08c77	0.029363854
64	0x3e12bf37	0.14330755
65	0xbc702bef	-0.014658912
66	0x3e168409	0.14698805
67	0x3d8ffb59	0.07030363
68	0xbd006d3d	-0.031354178
69	0x3dc44e34	0.095852286
70	0x3e380325	0.1796995
71	0x3c12a6ef	0.008950933
72	0x3b009ed3	0.0019625917
73	0xbc88e959	-0.016712831
74	0xbbd638fe	-0.0065375557
75	0x3de24293	0.11047854
76	0xbc844eaf	-0.0161508
77	0x3bcc582b	0.0062360964
78	0x3a27f7fb	0.00064074964
79	0x3dbf7886	0.0934916
80	0x3cbfd23e	0.023415681
81	0x3d9472ce	0.0724846
82	0x3d0f3cc6	0.034970067
83	0x3e131aca	0.14365688
84	0xbcbd5c54	-0.023115315
85	0x3db54ad2	0.088521615
86	0xbcbd4770	-0.023105353
87	0xbb2abdb3	-0.002605301
88	0x3e300f35	0.17193301
89	0x3e372e41	0.17888738
90	0xbc56db99	-0.01311388
91	0x3e36bbb1	0.17845036
92	0x3cdb20d3	0.02674905
93	0x3e225f9a	0.15856782
94	0x3b019250	0.0019771047
95	0x3e3bbd23	0.18333869
96	0x3ddd8e74	0.108181864
97	0x3d789824	0.060691968
98	0x3e1844c9	0.1486999
99	0x3d9bb54e	0.076029405
100	0x3e31f9fb	0.17380516
101	0x3cbb1c16	0.02284054
102	0x3e518cdd	0.20463891
103	0x3cf0ffc7	0.02941884
104	0x3d85e0d4	0.06537023
105	0x3c80cba0	0.015722096
106	0x3e2d7236	0.169381
107	0x3d7bc44e	0.061466508
108	0x3d6011e5	0.054704566
109	0x3e34a371	0.17640473
110	0x3e17943c	0.1480264
111	0x3d20cf92	0.039260454
112	0x3e4cc9dd	0.1999888
113	0x3d9c1822	0.076217905
114	0xbc0ea190	-0.008705512
115	0x3e1d578e	0.1536543
116	0x3c40debf	0.011771857
117	0x3e32fc1f	0.17478989
118	0x3a50af7a	0.00079607184
119	0x3dac56fc	0.084150285
120	0xbcbc73be	-0.023004409
121	0x3d8a97b4	0.06767216
122	0x3d9f522b	0.07779344
123	0x3d3f0103	0.046631824
124	0xb99394e1	-0.00028148948
125	0x3c86bb09	0.016446607
126	0x3d81c3c9	0.06336171
127	0x3bb137f5	0.005408282
128	0x3d00d918	0.031457037
129	0xbc965468	-0.018350795
130	0x3d94a96c	0.07258877
131	0x3e12f57a	0.14351454
132	0x3dd22ada	0.102620795
133	0xbcc8714f	-0.024468092
134	0x3cb63902	0.02224398
135	0x3b87d2bb	0.004144994
136	0x3e396d9c	0.18108219
137	0x3db86c0f	0.090049855
138	0x3ddb07cc	0.106948465
139	0x3cab2f1d	0.020896489
140	0x3dfc5554	0.123209625
141	0x3df43576	0.11924259
142	0x3d8903ec	0.06690201
143	0x3db52d11	0.08846486
144	0x3d5db503	0.054127704
145	0x3e34a6c6	0.17641744
146	0x3e1551ae	0.1458194
147	0x3e29af8b	0.1657087
148	0x3d6671b0	0.056260765
149	0x3c35f62e	0.011106057
150	0x3e2e3370	0.1701181
151	0x3c37f8d4	0.011228759
152	0x3d9b46a1	0.07581831
153	0x3d6c4549	0.057683263
154	0xbd2f7611	-0.042837206
155	0xbd11bcc0	-0.035580397
156	0x3bb04919	0.0053798077
157	0xbcac4b57	-0.021032019
158	0x3df7fa3b	0.121082745
159	0xbcf41a3d	-0.029797668
160	0x3e241c22	0.16026357
161	0x3d803dfe	0.06261824
162	0xbd39fc4b	-0.04540662
163	0x3e12bb3e	0.1432924
164	0x3d66ed15	0.056378443
165	0xbc726490	-0.014794484
166	0x3d398498	0.045292467
167	0x3e338d82	0.1753445
168	0x3de6ead0	0.11275256
169	0x3e0823c4	0.13294894
170	0xbcbaff61	-0.022826852
171	0x3e2205f4	0.15822583
172	0x3d4630d2	0.048386402
173	0x3e221e1c	0.15831798
174	0x3e325573	0.17415409
175	0x3e25b5e8	0.16182673
176	0x3dc10704	0.09425166
177	0xbcc0837c	-0.023500197
178	0x3e312833	0.17300491
179	0x3e321780	0.17391777
180	0xbd2ff945	-0.04296233
181	0x3d93c880	0.07215977
182	0x3d5d7a4d	0.054071713
183	0x3e123ee5	0.14281805
184	0xbd14a610	-0.036291182
185	0x3d94f098	0.07272452
186	0xbcf5c9b7	-0.030003412
187	0xbc5aec37	-0.013361982
188	0x3d732d91	0.059369627
189	0xbcf7d73e	-0.030254003
190	0x3d1ebda3	0.03875507
191	0x3d0d44e2	0.03448952
192	0x3d95c102	0.07312204
193	0x3e2b1c95	0.16710122
194	0x3de4d7a0	0.1117394
195	0x3ca1b313	0.01973871
196	0x3d8a75d7	0.067607574
197	0x3d377aeb	0.044794958
198	0x3d3db6be	0.046316855
199	0x3daf1e2e	0.08550678
200	0x3ddeaba0	0.108725786
201	0x3d290be0	0.04127109
202	0x3a51d1bc	0.000800397
203	0x3e047591	0.12935473
204	0xbb63c2b0	-0.0034753494
205	0x3d961c8a	0.07329662
206	0xbd015de2	-0.031583674
207	0x3dcebfeb	0.10095199
208	0x3de2a4ff	0.11066627
209	0x3e21758b	0.15767495
210	0x3deac2f0	0.114629626
211	0x3e090239	0.13379754
212	0xbd4da4e0	-0.050206065
213	0x3c6ade43	0.014335218
214	0x3b51d0f4	0.0032015415
215	0x3e02a0b7	0.1275662
216	0xbd1061fd	-0.0352497
217	0x3e33af23	0.17547278
218	0xb9c28d6f	-0.0003710794
219	0x3da4c0cd	0.08044586
220	0xba0e055a	-0.00054176676
221	0x3b5a98fd	0.0033355348
222	0x3d86dd61	0.065851934
223	0x3ddbba13	0.1072885
224	0x3d8a7565	0.067606725
225	0xbc0d67b2	-0.00863068
226	0xbcff4e54	-0.03116528
227	0xbceaac3a	-0.028646577
228	0xbe382f6d	-0.17986841
229	0xbd26faf7	-0.040766682
230	0xbd980dd6	-0.07424514
231	0xbe05eda1	-0.1307893
232	0xbd6364b5	-0.055515964
233	0xbe3a2270	-0.181772
234	0xbd16a80a	-0.03678135
235	0xbe0ad385	-0.13557251
236	0x3bb0e18f	0.0053979824
237	0x3c182b44	0.009287659
238	0xbb891cf2	-0.0041843588
239	0xbc21f0b8	-0.009884052
240	0xbcc714b8	-0.024301872
241	0xbe2bfa6d	-0.16794749
242	0xbccb2813	-0.024799382
243	0xbe3d3c95	-0.18480141
244	0xbd4f4cb1	-0.050610248
245	0xbd865192	-0.06558527
246	0xbd5354b3	-0.051594447
247	0xbe21c939	-0.15799417
248	0x3d142d5d	0.036176074
249	0xbd9f329e	-0.07773326
250	0x3c9dde9d	0.01927119
251	0xbe0e5d4e	-0.1390278
252	0xbd4a9e49	-0.04946736
253	0xb9f2ee17	-0.00046335228
254	0xbd11a13d	-0.03555416
255	0xbd9fdde9	-0.07805998

bias f4 [6]
0	0x3e476d10	0.19475198
1	0x3d8e4637	0.06946986
2	0x3da3cf9c	0.07998583
3	0xbdf760c8	-0.120790064
4	0x3dcc2924	0.099687845
5	0x3d69b889	0.057060752

weight f4 [12, 6, 3, 3]
0	0xbdeded59	-0.11617536
1	0xbdfdc911	-0.12391866
2	0xbd4b2223	-0.049593102
3	0x3c8a260e	0.016863849
4	0xbe38348b	-0.17988794
5	0xbc770687	-0.01507724
6	0xbe254a14	-0.1614154
7	0xba1936e3	-0.00058446656
8	0xbdc6db4c	-0.09709796
9	0xbe94e8c5	-0.2908384
10	0xbe505edc	-0.20348686
11	0xbd56d582	-0.05244971
12	0xbe063da6	-0.13109455
13	0xbe1af146	-0.15131101
14	0xbc43d20d	-0.0119519355
15	0xbcdb7a0e	-0.026791599
16	0xbe32fa3f	-0.17478274
17	0xbdb611a6	-0.08890085
18	0xbe5eb815	-0.21749909
19	0xbe60b59a	-0.21944275
20	0xbd3f9a6e	-0.046778135
21	0xbdccdf3e	-0.100035176
22	0xbd31fce6	-0.043454073
23	0xbd61ffc3	-0.055175554
24	0xbcc12dcb	-0.023581406
25	0xbe607df8	-0.21923053
26	0x3b52d31f	0.0032169295
27	0x3d839e4f	0.06426679
28	0xbdb94c5a	-0.09047766
29	0xbdcad924	-0.099046975
30	0xbe2d86e8	-0.16945994
31	0x3d5ba572	0.053624578
32	0xbde4a539	-0.11164326
33	0x3d8a34b4	0.067483336
34	0xbe0afa37	-0.13572012
35	0xbe30ebeb	-0.17277496
36	0x3c26e570	0.010186538
37	0xbdfc21ed	-0.12311158
38	0xbe206b47	-0.15665923
39	0xbe5c1fe8	-0.21496546
40	0xbe0d2761	-0.13784553
41	0xbdb2d935	-0.08732835
42	0xbcb88a57	-0.022526903
43	0xbe36982d	-0.17831488
44	0xbc8ec205	-0.0174265
45	0x3bd5a6e1	0.0065201377
46	0xbe34ce14	-0.17656738
47	0xbd9364c5	-0.07196955
48	0xbc8d877b	-0.017276516
49	0xbdb34b1b	-0.087545596
50	0xbe2900fe	-0.16504285
51	0xba70056e	-0.00091560825
52	0xbd8a7e59	-0.0676238
53	0xbe5c30ab	-0.2150294
54	0x3d4f29a5	0.050576825
55	0x3e208cc0	0.15678692
56	0xbc6ea0e3	-0.014564726
57	0x3ddb5b7f	0.10710811
58	0x3e5487a1	0.20754863
59	0x3e342276	0.17591271
60	0x3c8b05ef	0.016970603
61	0x3dc23481	0.094826706
62	0x3e2b2687	0.16713916
63	0x3dae2db2	0.085048094
64	0x3e32693c	0.17422956
65	0xbd36e703	-0.044653904
66	0x3da1be9d	0.07897685
67	0xbb9a3b74	-0.0047067944
68	0x3dad0399	0.08447952
69	0x3daafed6	0.08349387
70	0x3d2239e3	0.039605986
71	0x3defe939	0.117144056
72	0x3dcb46d0	0.09925616
73	0x3d9ea2f0	0.077459216
74	0x3dfb2762	0.12263371
75	0x3dfea6b0	0.12434137
76	0x3dc384ef	0.095468394
77	0x3de4b73d	0.111677624
78	0x3e6ea945	0.23306759
79	0x3e3b62e6	0.18299446
80	0x3e4768a7	0.19473515
81	0x3db5bef9	0.08874316
82	0xbca4c49e	-0.020113286
83	0xbd840b3b	-0.064474545
84	0xbd0cc2d5	-0.034365494
85	0x3c5288a0	0.012849957
86	0x3e0e479c	0.13894504
87	0xbc8f27f7	-0.017475111
88	0xbd4702c0	-0.048586607
89	0xbcb43452	-0.021997605
90	0xbca57a5d	-0.020199949
91	0x3e3ab317	0.1823238
92	0x3e35a25d	0.17737718
93	0x3e38ef48	0.18060029
94	0x3cd3859d	0.025820548
95	0x3d8e90b3	0.06961193
96	0x3e188445	0.14894207
97	0x3e3c7a5c	0.18406051
98	0x3c455ff8	0.0120468065
99	0x3b99723c	0.0046828073
100	0x3dea2e39	0.114345975
101	0x3d01d50f	0.03169733
102	0x3e53e647	0.20693313
103	0x3c68b731	0.0142038325
104	0x3e51f11f	0.20502137
105	0x3dcc878e	0.099867925
106	0x3e3c6134	0.18396455
107	0x3e14ee22	0.14543965
108	0xbc3be7ca	-0.011468837
109	0x3c314cc4	0.010821525
110	0x3b419738	0.0029539596
111	0xbe4f2f3a	-0.20232859
112	0xbe00662a	-0.12538972
113	0xbd4fcadf	-0.050730582
114	0xbd8694f3	-0.065713786
115	0x3d5a698f	0.053323325
116	0x3d2f6d2d	0.042828728
117	0xbe4c82b0	-0.19971728
118	0xbe319d7f	-0.17345236
119	0xbe545243	-0.20734505
120	0xbe573ac1	-0.21018507
121	0xbde12b0a	-0.10994537
122	0xbe56a8bb	-0.20962803
123	0xbe4ed925	-0.20200022
124	0xbe5a8605	-0.21340187
125	0xbe5bb8cd	-0.21457215
126	0xbddc1a8e	-0.107472524
127	0xbe148327	-0.14503156
128	0xbd27ad94	-0.04093702
129	0xbe1bf128	-0.15228713
130	0xbc587a88	-0.0132128075
131	0xbe4e3fd9	-0.20141543
132	0xbdb21024	-0.08694485
133	0x3ca9bf55	0.020721117
134	0xbe125138	-0.14288795
135	0xbdf6a3e8	-0.120429814
136	0xbe168f1d	-0.14703031
137	0xbe09c967	-0.13455735
138	0xbd4f624f	-0.050630864
139	0xbe2dbddb	-0.16966955
140	0xbe0c8ee8	-0.1372639
141	0xbdfcdb05	-0.12346462
142	0xbdcd959f	-0.100383036
143	0x3d8e3276	0.069432184
144	0x3bb6e4cb	0.0055814735
145	0xbd614eed	-0.05500691
146	0xbe15319d	-0.14569707
147	0xbe610eda	-0.21978322
148	0xbc25605c	-0.010093775
149	0x3cdba3e2	0.026811544
150	0xbe5bbb29	-0.21458115
151	0xbe483410	-0.1955111
152	0xbdb4e4ad	-0.08832679
153	0xbe34a8d7	-0.17642532
154	0xbe335878	-0.17514217
155	0xbd3c5135	-0.045975883
156	0xbdc1c1fe	-0.09460829
157	0xbe43a509	-0.19105925
158	0x3d0b4797	0.03400382
159	0xbda62b7b	-0.08113762
160	0xbb406d6e	-0.00293621
161	0xbbde7577	-0.0067889052
162	0xbe82ffad	-0.2558569
163	0xbe75f7e2	-0.24020341
164	0xbd053720	-0.032523274
165	0xbceaaef8	-0.028647885
166	0xbe26767b	-0.16256134
167	0xbdf6d10a	-0.1205159
168	0xbe6c06e5	-0.23049505
169	0xbd2fb4b8	-0.042896956
170	0xbdc4eaff	-0.096151344
171	0xbe0618d8	-0.13095415
172	0xbdb7cb4c	-0.08974323
173	0xbdc5f714	-0.09666267
174	0xbdc39354	-0.09549585
175	0xbe40584d	-0.18783684
176	0xbccc1ad8	-0.024915144
177	0xbdd4c236	-0.10388605
178	0x3b94ee1c	0.0045449864
179	0xbe22141c	-0.15827984
180	0xbba67e16	-0.0050809486
181	0xbe1f6689	-0.15566458
182	0x3d050daa	0.032483734
183	0x3c5c45c7	0.013444371
184	0xbe6598d5	-0.22421582
185	0xbda8b29f	-0.08237194
186	0xbdaf9544	-0.08573392
187	0xbcaeb26f	-0.021325318
188	0xbe56fe3d	-0.20995422
189	0x3c376115	0.01119258
190	0x3b41e26f	0.0029584428
191	0xbe39e553	-0.18153886
192	0xbe066c36	-0.13127217
193	0x3ceef7c7	0.029170884
194	0x3d5cf367	0.053943064
195	0xbddfd2f6	-0.109289095
196	0xbd70a081	-0.05874682
197	0xbe42f1f9	-0.19037618
198	0xbdf03119	-0.11728115
199	0x3ba3128b	0.0049765757
200	0xbe31d488	-0.1736623
201	0xbce58da2	-0.028021637
202	0xbe0b3ff2	-0.13598612
203	0xbc25a131	-0.010109232
204	0xbe385a1a	-0.18003121
205	0xbe396a5e	-0.18106982
206	0xbe0d7c3c	-0.13816923
207	0xbe0cad0e	-0.1373789
208	0xbd006414	-0.031345442
209	0xbe38ed72	-0.18059328
210	0xbe443ffa	-0.1916503
211	0xbe599a5f	-0.21250294
212	0x3cd9bdb2	0.026579712
213	0xbe0e4e28	-0.13897002
214	0x3c711904	0.014715437
215	0xbdeeb483	-0.11655524
216	0x3d916bc4	0.07100633
217	0x3de2ed98	0.11080474
218	0x3dc719d1	0.09721721
219	0x3d391210	0.04518324
220	0x3defd4cf	0.11710512
221	0x3e15ccdb	0.14628927
222	0x3df0f991	0.11766351
223	0x3df4a4cc	0.11945495
224	0x3b48876f	0.0030598303
225	0xbcdbe7c6	-0.026843917
226	0x3df494ed	0.11942468
227	0xbdad7309	-0.08469207
228	0x3e21719d	0.15765996
229	0xbd80f193	-0.062960766
230	0xbd737759	-0.05943999
231	0xbda9ce40	-0.08291292
232	0x3da57104	0.08078197
233	0xbd2ef448	-0.042713434
234	0x3af7393c	0.0018861662
235	0x3cc552d3	0.024087345
236	0x3dbfb25f	0.093601935
237	0x3d98c60b	0.07459649
238	0x3d9b52cb	0.07584151
239	0x3e331489	0.17488302
240	0x3db6f94e	0.0893427
241	0xbd52a87b	-0.051430207
242	0x3d9d35b6	0.0767626
243	0xbe022dae	-0.12712738
244	0xbd2d358d	-0.042287398
245	0x3d3b4665	0.04572143
246	0x3d8196d2	0.06327595
247	0x3d81de12	0.06341185
248	0xbe1b0f1d	-0.15142484
249	0xbddefc63	-0.10887983
250	0xbda51092	-0.08059801
251	0xbdfc7851	-0.12327636
252	0x3e21d1cf	0.15802692
253	0x3d9501cd	0.07275734
254	0x3e288b21	0.16459323
255	0xbd48c462	-0.04901541

bias f4 [12]
0	0xbd365fb6	-0.04452487
1	0x3dac9d09	0.084283896
2	0xbe0498ba	-0.12948886
3	0xbe0d3ca5	-0.13792665
4	0xbc955398	-0.018228337
5	0x3d950a3b	0.07277342
6	0x3d87b25c	0.06625816
7	0x3d843c52	0.06456818
8	0x3b5a7f34	0.003333998
9	0x3c952d09	0.018209951
10	0x3e105931	0.14096524
11	0x3e3f8818	0.1870426

weight f4 [1, 12, 3, 3]
0	0xbc9b39f2	-0.018948529
1	0xbdfbe6a9	-0.12299854
2	0xbdcdaeb1	-0.10043085
3	0xbc88d2c6	-0.016702067
4	0xbd035222	-0.03206075
5	0xbd553e2e	-0.052061252
6	0xbe0558cf	-0.13022159
7	0xbc959003	-0.018257147
8	0xbdc9b62f	-0.09849202
9	0xbca75dca	-0.020430464
10	0x3ca506f0	0.02014491
11	0xbe160aab	-0.14652507
12	0xbe1fe669	-0.15615238
13	0xbdfd218b	-0.123599134
14	0xbdc58ae8	-0.09645635
15	0x3cb21b5f	0.021741567
16	0xbe1ae83c	-0.15127653
17	0xbe06a0cb	-0.13147275
18	0x3aedb508	0.0018135617
19	0xbd44b64e	-0.04802542
20	0xbdcc85c6	-0.09986453
21	0xbbb7a476	-0.005604322
22	0xbe068eb2	-0.13140371
23	0xbd7fda4f	-0.062464055
24	0xbcfaa697	-0.030597014
25	0xbe0bfebf	-0.13671397
26	0xbd08f24a	-0.03343419
27	0xbe0e5d4a	-0.13902774
28	0xbdf5b635	-0.11997644
29	0xbe051fe1	-0.13000442
30	0xbab5ceaf	-0.0013870801
31	0xbd15a612	-0.03653533
32	0xbdedd476	-0.11612789
33	0xbdd26b65	-0.1027439
34	0xbd07ed06	-0.033185028
35	0xbc64c89e	-0.0139638465
36	0x3c06bade	0.008223264
37	0xbe0141b2	-0.12622717
38	0xbc08a2cf	-0.008339598
39	0xbdd6f9f4	-0.104968935
40	0xbd995b14	-0.07488075
41	0xbdaec85f	-0.085343115
42	0x3c208201	0.00979662
43	0xbc0b0834	-0.0084858425
44	0xbd8c2d42	-0.0684457
45	0xbcc7ddfc	-0.024397843
46	0xbdd0bb11	-0.1019193
47	0xbddbcc5f	-0.1073234
48	0xbdaa2c07	-0.08309179
49	0xbe06f8c3	-0.13180833
50	0xbc30bd87	-0.010787374
51	0xbde99c13	-0.11406722
52	0xbe03f1e1	-0.12885238
53	0x3ce1fd6f	0.027586667
54	0x3c599a8f	0.013281479
55	0xbe0db591	-0.13838793
56	0xbcdd6c03	-0.027029043
57	0xbce0f061	-0.027458372
58	0xbd973ad6	-0.07384269
59	0xbc97b619	-0.018519448
60	0xbdb51972	-0.08842744
61	0xbde7ef63	-0.11324956
62	0x3bcffb55	0.0063471
63	0xbe0a98fb	-0.1353492
64	0xbdc3e9e0	-0.095660925
65	0xbde86035	-0.11346475
66	0xbdc3fc73	-0.09569635
67	0xbd6dc70b	-0.05805115
68	0xbbcbd034	-0.006219888
69	0x3d0bb494	0.03410776
70	0xbd850f96	-0.064971134
71	0xbdc09e75	-0.09405223
72	0xbe119b4a	-0.14219394
73	0xbdde6faf	-0.10861146
74	0xbdca32dc	-0.09872982
75	0xbc2b8619	-0.010468983
76	0xbdd379b3	-0.10325947
77	0xbdb0cff7	-0.08633416
78	0xbd533939	-0.051568244
79	0xbb017b1f	-0.0019757224
80	0xbe14383a	-0.14474574
81	0xbdaae393	-0.083441876
82	0xbe06f28e	-0.13178465
83	0xbca7354f	-0.020411162
84	0x3c4bbb9d	0.012434867
85	0xbdc8203e	-0.09771775
86	0xbdee8caf	-0.11647927
87	0x3c2051dd	0.009785143
88	0xbc6eb627	-0.014569796
89	0xbbf7cd7f	-0.007562339
90	0xbde2a404	-0.1106644
91	0x3cdc795d	0.02691334
92	0xbd3c01b3	-0.045900058
93	0xbd286a5f	-0.04111707
94	0xbde3e5ae	-0.11127792
95	0xbe161f32	-0.14660338
96	0xbcd29754	-0.025706924
97	0xbc8b0251	-0.016968878
98	0xbdcd117f	-0.10013103
99	0x3bbaa143	0.0056954934
100	0xbd9ca5ba	-0.07648797
101	0xbded6c8c	-0.11592969
102	0x3d0ff1da	0.035142757
103	0xbd610108	-0.054932624
104	0xbd39ce6a	-0.045362867
105	0xbde57de0	-0.112056494
106	0xbde3f6d0	-0.1113106
107	0xbd948c4b	-0.07253321
